{"class_name": "Functional", "config": {"name": "model", "layers": [{"class_name": "InputLayer", "config": {"batch_input_shape": [null, 91, 109, 91, 1], "dtype": "float32", "sparse": false, "ragged": false, "name": "input_1"}, "name": "input_1", "inbound_nodes": []}, {"class_name": "Conv3D", "config": {"name": "input0_conv1", "trainable": true, "dtype": "float32", "filters": 32, "kernel_size": [3, 3, 3], "strides": [1, 1, 1], "padding": "same", "data_format": "channels_last", "dilation_rate": [1, 1, 1], "groups": 1, "activation": "linear", "use_bias": true, "kernel_initializer": {"class_name": "GlorotUniform", "config": {"seed": null}}, "bias_initializer": {"class_name": "Zeros", "config": {}}, "kernel_regularizer": {"class_name": "L2", "config": {"l2": 9.999999747378752e-06}}, "bias_regularizer": {"class_name": "L2", "config": {"l2": 9.999999747378752e-06}}, "activity_regularizer": null, "kernel_constraint": null, "bias_constraint": null}, "name": "input0_conv1", "inbound_nodes": [[["input_1", 0, 0, {}]]]}, {"class_name": "BatchNormalization", "config": {"name": "batch_normalization", "trainable": true, "dtype": "float32", "axis": [3], "momentum": 0.99, "epsilon": 0.001, "center": true, "scale": true, "beta_initializer": {"class_name": "Zeros", "config": {}}, "gamma_initializer": {"class_name": "Ones", "config": {}}, "moving_mean_initializer": {"class_name": "Zeros", "config": {}}, "moving_variance_initializer": {"class_name": "Ones", "config": {}}, "beta_regularizer": null, "gamma_regularizer": null, "beta_constraint": null, "gamma_constraint": null}, "name": "batch_normalization", "inbound_nodes": [[["input0_conv1", 0, 0, {}]]]}, {"class_name": "Activation", "config": {"name": "activation", "trainable": true, "dtype": "float32", "activation": "relu"}, "name": "activation", "inbound_nodes": [[["batch_normalization", 0, 0, {}]]]}, {"class_name": "AveragePooling3D", "config": {"name": "input0pool1", "trainable": true, "dtype": "float32", "pool_size": [3, 3, 3], "padding": "same", "strides": [2, 2, 2], "data_format": "channels_last"}, "name": "input0pool1", "inbound_nodes": [[["activation", 0, 0, {}]]]}, {"class_name": "Conv3D", "config": {"name": "input0_block12_conv1", "trainable": true, "dtype": "float32", "filters": 16, "kernel_size": [3, 3, 3], "strides": [1, 1, 1], "padding": "same", "data_format": "channels_last", "dilation_rate": [1, 1, 1], "groups": 1, "activation": "linear", "use_bias": true, "kernel_initializer": {"class_name": "GlorotUniform", "config": {"seed": null}}, "bias_initializer": {"class_name": "Zeros", "config": {}}, "kernel_regularizer": {"class_name": "L2", "config": {"l2": 9.999999747378752e-06}}, "bias_regularizer": {"class_name": "L2", "config": {"l2": 9.999999747378752e-06}}, "activity_regularizer": null, "kernel_constraint": null, "bias_constraint": null}, "name": "input0_block12_conv1", "inbound_nodes": [[["input0pool1", 0, 0, {}]]]}, {"class_name": "BatchNormalization", "config": {"name": "batch_normalization_1", "trainable": true, "dtype": "float32", "axis": [3], "momentum": 0.99, "epsilon": 0.001, "center": true, "scale": true, "beta_initializer": {"class_name": "Zeros", "config": {}}, "gamma_initializer": {"class_name": "Ones", "config": {}}, "moving_mean_initializer": {"class_name": "Zeros", "config": {}}, "moving_variance_initializer": {"class_name": "Ones", "config": {}}, "beta_regularizer": null, "gamma_regularizer": null, "beta_constraint": null, "gamma_constraint": null}, "name": "batch_normalization_1", "inbound_nodes": [[["input0_block12_conv1", 0, 0, {}]]]}, {"class_name": "Activation", "config": {"name": "activation_1", "trainable": true, "dtype": "float32", "activation": "relu"}, "name": "activation_1", "inbound_nodes": [[["batch_normalization_1", 0, 0, {}]]]}, {"class_name": "Conv3D", "config": {"name": "input0_block21_conv2", "trainable": true, "dtype": "float32", "filters": 16, "kernel_size": [3, 3, 3], "strides": [1, 1, 1], "padding": "same", "data_format": "channels_last", "dilation_rate": [1, 1, 1], "groups": 1, "activation": "linear", "use_bias": true, "kernel_initializer": {"class_name": "GlorotUniform", "config": {"seed": null}}, "bias_initializer": {"class_name": "Zeros", "config": {}}, "kernel_regularizer": {"class_name": "L2", "config": {"l2": 9.999999747378752e-06}}, "bias_regularizer": {"class_name": "L2", "config": {"l2": 9.999999747378752e-06}}, "activity_regularizer": null, "kernel_constraint": null, "bias_constraint": null}, "name": "input0_block21_conv2", "inbound_nodes": [[["activation_1", 0, 0, {}]]]}, {"class_name": "BatchNormalization", "config": {"name": "batch_normalization_3", "trainable": true, "dtype": "float32", "axis": [3], "momentum": 0.99, "epsilon": 0.001, "center": true, "scale": true, "beta_initializer": {"class_name": "Zeros", "config": {}}, "gamma_initializer": {"class_name": "Ones", "config": {}}, "moving_mean_initializer": {"class_name": "Zeros", "config": {}}, "moving_variance_initializer": {"class_name": "Ones", "config": {}}, "beta_regularizer": null, "gamma_regularizer": null, "beta_constraint": null, "gamma_constraint": null}, "name": "batch_normalization_3", "inbound_nodes": [[["input0_block21_conv2", 0, 0, {}]]]}, {"class_name": "Add", "config": {"name": "add", "trainable": true, "dtype": "float32"}, "name": "add", "inbound_nodes": [[["batch_normalization_3", 0, 0, {}], ["activation_1", 0, 0, {}]]]}, {"class_name": "Activation", "config": {"name": "activation_3", "trainable": true, "dtype": "float32", "activation": "relu"}, "name": "activation_3", "inbound_nodes": [[["add", 0, 0, {}]]]}, {"class_name": "Conv3D", "config": {"name": "input0_block22_conv2", "trainable": true, "dtype": "float32", "filters": 16, "kernel_size": [3, 3, 3], "strides": [1, 1, 1], "padding": "same", "data_format": "channels_last", "dilation_rate": [1, 1, 1], "groups": 1, "activation": "linear", "use_bias": true, "kernel_initializer": {"class_name": "GlorotUniform", "config": {"seed": null}}, "bias_initializer": {"class_name": "Zeros", "config": {}}, "kernel_regularizer": {"class_name": "L2", "config": {"l2": 9.999999747378752e-06}}, "bias_regularizer": {"class_name": "L2", "config": {"l2": 9.999999747378752e-06}}, "activity_regularizer": null, "kernel_constraint": null, "bias_constraint": null}, "name": "input0_block22_conv2", "inbound_nodes": [[["activation_3", 0, 0, {}]]]}, {"class_name": "BatchNormalization", "config": {"name": "batch_normalization_5", "trainable": true, "dtype": "float32", "axis": [3], "momentum": 0.99, "epsilon": 0.001, "center": true, "scale": true, "beta_initializer": {"class_name": "Zeros", "config": {}}, "gamma_initializer": {"class_name": "Ones", "config": {}}, "moving_mean_initializer": {"class_name": "Zeros", "config": {}}, "moving_variance_initializer": {"class_name": "Ones", "config": {}}, "beta_regularizer": null, "gamma_regularizer": null, "beta_constraint": null, "gamma_constraint": null}, "name": "batch_normalization_5", "inbound_nodes": [[["input0_block22_conv2", 0, 0, {}]]]}, {"class_name": "Add", "config": {"name": "add_1", "trainable": true, "dtype": "float32"}, "name": "add_1", "inbound_nodes": [[["batch_normalization_5", 0, 0, {}], ["activation_3", 0, 0, {}]]]}, {"class_name": "Activation", "config": {"name": "activation_5", "trainable": true, "dtype": "float32", "activation": "relu"}, "name": "activation_5", "inbound_nodes": [[["add_1", 0, 0, {}]]]}, {"class_name": "Conv3D", "config": {"name": "input0_block23_conv2", "trainable": true, "dtype": "float32", "filters": 16, "kernel_size": [3, 3, 3], "strides": [1, 1, 1], "padding": "same", "data_format": "channels_last", "dilation_rate": [1, 1, 1], "groups": 1, "activation": "linear", "use_bias": true, "kernel_initializer": {"class_name": "GlorotUniform", "config": {"seed": null}}, "bias_initializer": {"class_name": "Zeros", "config": {}}, "kernel_regularizer": {"class_name": "L2", "config": {"l2": 9.999999747378752e-06}}, "bias_regularizer": {"class_name": "L2", "config": {"l2": 9.999999747378752e-06}}, "activity_regularizer": null, "kernel_constraint": null, "bias_constraint": null}, "name": "input0_block23_conv2", "inbound_nodes": [[["activation_5", 0, 0, {}]]]}, {"class_name": "BatchNormalization", "config": {"name": "batch_normalization_7", "trainable": true, "dtype": "float32", "axis": [3], "momentum": 0.99, "epsilon": 0.001, "center": true, "scale": true, "beta_initializer": {"class_name": "Zeros", "config": {}}, "gamma_initializer": {"class_name": "Ones", "config": {}}, "moving_mean_initializer": {"class_name": "Zeros", "config": {}}, "moving_variance_initializer": {"class_name": "Ones", "config": {}}, "beta_regularizer": null, "gamma_regularizer": null, "beta_constraint": null, "gamma_constraint": null}, "name": "batch_normalization_7", "inbound_nodes": [[["input0_block23_conv2", 0, 0, {}]]]}, {"class_name": "Add", "config": {"name": "add_2", "trainable": true, "dtype": "float32"}, "name": "add_2", "inbound_nodes": [[["batch_normalization_7", 0, 0, {}], ["activation_5", 0, 0, {}]]]}, {"class_name": "Activation", "config": {"name": "activation_7", "trainable": true, "dtype": "float32", "activation": "relu"}, "name": "activation_7", "inbound_nodes": [[["add_2", 0, 0, {}]]]}, {"class_name": "Conv3D", "config": {"name": "input0_block24_conv2", "trainable": true, "dtype": "float32", "filters": 16, "kernel_size": [3, 3, 3], "strides": [1, 1, 1], "padding": "same", "data_format": "channels_last", "dilation_rate": [1, 1, 1], "groups": 1, "activation": "linear", "use_bias": true, "kernel_initializer": {"class_name": "GlorotUniform", "config": {"seed": null}}, "bias_initializer": {"class_name": "Zeros", "config": {}}, "kernel_regularizer": {"class_name": "L2", "config": {"l2": 9.999999747378752e-06}}, "bias_regularizer": {"class_name": "L2", "config": {"l2": 9.999999747378752e-06}}, "activity_regularizer": null, "kernel_constraint": null, "bias_constraint": null}, "name": "input0_block24_conv2", "inbound_nodes": [[["activation_7", 0, 0, {}]]]}, {"class_name": "BatchNormalization", "config": {"name": "batch_normalization_9", "trainable": true, "dtype": "float32", "axis": [3], "momentum": 0.99, "epsilon": 0.001, "center": true, "scale": true, "beta_initializer": {"class_name": "Zeros", "config": {}}, "gamma_initializer": {"class_name": "Ones", "config": {}}, "moving_mean_initializer": {"class_name": "Zeros", "config": {}}, "moving_variance_initializer": {"class_name": "Ones", "config": {}}, "beta_regularizer": null, "gamma_regularizer": null, "beta_constraint": null, "gamma_constraint": null}, "name": "batch_normalization_9", "inbound_nodes": [[["input0_block24_conv2", 0, 0, {}]]]}, {"class_name": "Add", "config": {"name": "add_3", "trainable": true, "dtype": "float32"}, "name": "add_3", "inbound_nodes": [[["batch_normalization_9", 0, 0, {}], ["activation_7", 0, 0, {}]]]}, {"class_name": "Activation", "config": {"name": "activation_9", "trainable": true, "dtype": "float32", "activation": "relu"}, "name": "activation_9", "inbound_nodes": [[["add_3", 0, 0, {}]]]}, {"class_name": "Conv3D", "config": {"name": "input0_block25_conv2", "trainable": true, "dtype": "float32", "filters": 16, "kernel_size": [3, 3, 3], "strides": [1, 1, 1], "padding": "same", "data_format": "channels_last", "dilation_rate": [1, 1, 1], "groups": 1, "activation": "linear", "use_bias": true, "kernel_initializer": {"class_name": "GlorotUniform", "config": {"seed": null}}, "bias_initializer": {"class_name": "Zeros", "config": {}}, "kernel_regularizer": {"class_name": "L2", "config": {"l2": 9.999999747378752e-06}}, "bias_regularizer": {"class_name": "L2", "config": {"l2": 9.999999747378752e-06}}, "activity_regularizer": null, "kernel_constraint": null, "bias_constraint": null}, "name": "input0_block25_conv2", "inbound_nodes": [[["activation_9", 0, 0, {}]]]}, {"class_name": "BatchNormalization", "config": {"name": "batch_normalization_11", "trainable": true, "dtype": "float32", "axis": [3], "momentum": 0.99, "epsilon": 0.001, "center": true, "scale": true, "beta_initializer": {"class_name": "Zeros", "config": {}}, "gamma_initializer": {"class_name": "Ones", "config": {}}, "moving_mean_initializer": {"class_name": "Zeros", "config": {}}, "moving_variance_initializer": {"class_name": "Ones", "config": {}}, "beta_regularizer": null, "gamma_regularizer": null, "beta_constraint": null, "gamma_constraint": null}, "name": "batch_normalization_11", "inbound_nodes": [[["input0_block25_conv2", 0, 0, {}]]]}, {"class_name": "Add", "config": {"name": "add_4", "trainable": true, "dtype": "float32"}, "name": "add_4", "inbound_nodes": [[["batch_normalization_11", 0, 0, {}], ["activation_9", 0, 0, {}]]]}, {"class_name": "Activation", "config": {"name": "activation_11", "trainable": true, "dtype": "float32", "activation": "relu"}, "name": "activation_11", "inbound_nodes": [[["add_4", 0, 0, {}]]]}, {"class_name": "Conv3D", "config": {"name": "input0_block31_conv2", "trainable": true, "dtype": "float32", "filters": 16, "kernel_size": [3, 3, 3], "strides": [1, 1, 1], "padding": "same", "data_format": "channels_last", "dilation_rate": [1, 1, 1], "groups": 1, "activation": "linear", "use_bias": true, "kernel_initializer": {"class_name": "GlorotUniform", "config": {"seed": null}}, "bias_initializer": {"class_name": "Zeros", "config": {}}, "kernel_regularizer": {"class_name": "L2", "config": {"l2": 9.999999747378752e-06}}, "bias_regularizer": {"class_name": "L2", "config": {"l2": 9.999999747378752e-06}}, "activity_regularizer": null, "kernel_constraint": null, "bias_constraint": null}, "name": "input0_block31_conv2", "inbound_nodes": [[["activation_11", 0, 0, {}]]]}, {"class_name": "BatchNormalization", "config": {"name": "batch_normalization_13", "trainable": true, "dtype": "float32", "axis": [3], "momentum": 0.99, "epsilon": 0.001, "center": true, "scale": true, "beta_initializer": {"class_name": "Zeros", "config": {}}, "gamma_initializer": {"class_name": "Ones", "config": {}}, "moving_mean_initializer": {"class_name": "Zeros", "config": {}}, "moving_variance_initializer": {"class_name": "Ones", "config": {}}, "beta_regularizer": null, "gamma_regularizer": null, "beta_constraint": null, "gamma_constraint": null}, "name": "batch_normalization_13", "inbound_nodes": [[["input0_block31_conv2", 0, 0, {}]]]}, {"class_name": "AveragePooling3D", "config": {"name": "input0_block31avgpool1", "trainable": true, "dtype": "float32", "pool_size": [3, 3, 3], "padding": "same", "strides": [2, 2, 2], "data_format": "channels_last"}, "name": "input0_block31avgpool1", "inbound_nodes": [[["batch_normalization_13", 0, 0, {}]]]}, {"class_name": "GlobalAveragePooling3D", "config": {"name": "global_average_pooling3d", "trainable": true, "dtype": "float32", "data_format": "channels_last", "keepdims": false}, "name": "global_average_pooling3d", "inbound_nodes": [[["input0_block31avgpool1", 0, 0, {}]]]}, {"class_name": "GlobalMaxPooling3D", "config": {"name": "global_max_pooling3d", "trainable": true, "dtype": "float32", "data_format": "channels_last", "keepdims": false}, "name": "global_max_pooling3d", "inbound_nodes": [[["input0_block31avgpool1", 0, 0, {}]]]}, {"class_name": "Dense", "config": {"name": "dense", "trainable": true, "dtype": "float32", "units": 2, "activation": "relu", "use_bias": true, "kernel_initializer": {"class_name": "GlorotUniform", "config": {"seed": null}}, "bias_initializer": {"class_name": "Zeros", "config": {}}, "kernel_regularizer": {"class_name": "L2", "config": {"l2": 9.999999747378752e-06}}, "bias_regularizer": null, "activity_regularizer": null, "kernel_constraint": null, "bias_constraint": null}, "name": "dense", "inbound_nodes": [[["global_average_pooling3d", 0, 0, {}]], [["global_max_pooling3d", 0, 0, {}]]]}, {"class_name": "Dense", "config": {"name": "dense_1", "trainable": true, "dtype": "float32", "units": 16, "activation": "linear", "use_bias": true, "kernel_initializer": {"class_name": "GlorotUniform", "config": {"seed": null}}, "bias_initializer": {"class_name": "Zeros", "config": {}}, "kernel_regularizer": {"class_name": "L2", "config": {"l2": 9.999999747378752e-06}}, "bias_regularizer": null, "activity_regularizer": null, "kernel_constraint": null, "bias_constraint": null}, "name": "dense_1", "inbound_nodes": [[["dense", 0, 0, {}]], [["dense", 1, 0, {}]]]}, {"class_name": "Add", "config": {"name": "add_5", "trainable": true, "dtype": "float32"}, "name": "add_5", "inbound_nodes": [[["dense_1", 0, 0, {}], ["dense_1", 1, 0, {}]]]}, {"class_name": "Activation", "config": {"name": "activation_13", "trainable": true, "dtype": "float32", "activation": "sigmoid"}, "name": "activation_13", "inbound_nodes": [[["add_5", 0, 0, {}]]]}, {"class_name": "Multiply", "config": {"name": "multiply", "trainable": true, "dtype": "float32"}, "name": "multiply", "inbound_nodes": [[["input0_block31avgpool1", 0, 0, {}], ["activation_13", 0, 0, {}]]]}, {"class_name": "Lambda", "config": {"name": "lambda", "trainable": true, "dtype": "float32", "function": ["4wEAAAAAAAAAAAAAAAEAAAAFAAAAUwAAAHMQAAAAdABqAXwAZAFkAmQDjQNTAKkETun/////VCkC\n2gRheGlz2ghrZWVwZGltc6kC2gJ0ZtoLcmVkdWNlX21lYW6pAdoBeKkAcgoAAAD6NUM6L1VzZXJz\nL1VTRVIvRGVza3RvcC9Nb3RvclNjb3Jlc19ETC91dGlscy9OZXR3b3JrLnB52gg8bGFtYmRhPoYA\nAADzAAAAAA==\n", null, null], "function_type": "lambda", "module": "Network", "output_shape": null, "output_shape_type": "raw", "output_shape_module": null, "arguments": {}}, "name": "lambda", "inbound_nodes": [[["multiply", 0, 0, {}]]]}, {"class_name": "Lambda", "config": {"name": "lambda_1", "trainable": true, "dtype": "float32", "function": ["4wEAAAAAAAAAAAAAAAEAAAAFAAAAUwAAAHMQAAAAdABqAXwAZAFkAmQDjQNTAKkETun/////VCkC\n2gRheGlz2ghrZWVwZGltcykC2gJ0ZtoKcmVkdWNlX21heKkB2gF4qQByCQAAAPo1QzovVXNlcnMv\nVVNFUi9EZXNrdG9wL01vdG9yU2NvcmVzX0RML3V0aWxzL05ldHdvcmsucHnaCDxsYW1iZGE+hwAA\nAPMAAAAA\n", null, null], "function_type": "lambda", "module": "Network", "output_shape": null, "output_shape_type": "raw", "output_shape_module": null, "arguments": {}}, "name": "lambda_1", "inbound_nodes": [[["multiply", 0, 0, {}]]]}, {"class_name": "Concatenate", "config": {"name": "concatenate", "trainable": true, "dtype": "float32", "axis": -1}, "name": "concatenate", "inbound_nodes": [[["lambda", 0, 0, {}], ["lambda_1", 0, 0, {}]]]}, {"class_name": "Conv3D", "config": {"name": "conv3d", "trainable": true, "dtype": "float32", "filters": 1, "kernel_size": [7, 7, 7], "strides": [1, 1, 1], "padding": "same", "data_format": "channels_last", "dilation_rate": [1, 1, 1], "groups": 1, "activation": "sigmoid", "use_bias": true, "kernel_initializer": {"class_name": "GlorotUniform", "config": {"seed": null}}, "bias_initializer": {"class_name": "Zeros", "config": {}}, "kernel_regularizer": null, "bias_regularizer": null, "activity_regularizer": null, "kernel_constraint": null, "bias_constraint": null}, "name": "conv3d", "inbound_nodes": [[["concatenate", 0, 0, {}]]]}, {"class_name": "Conv3D", "config": {"name": "input0_block31_resconv1", "trainable": true, "dtype": "float32", "filters": 16, "kernel_size": [1, 1, 1], "strides": [2, 2, 2], "padding": "same", "data_format": "channels_last", "dilation_rate": [1, 1, 1], "groups": 1, "activation": "linear", "use_bias": true, "kernel_initializer": {"class_name": "GlorotUniform", "config": {"seed": null}}, "bias_initializer": {"class_name": "Zeros", "config": {}}, "kernel_regularizer": {"class_name": "L2", "config": {"l2": 9.999999747378752e-06}}, "bias_regularizer": {"class_name": "L2", "config": {"l2": 9.999999747378752e-06}}, "activity_regularizer": null, "kernel_constraint": null, "bias_constraint": null}, "name": "input0_block31_resconv1", "inbound_nodes": [[["activation_11", 0, 0, {}]]]}, {"class_name": "Multiply", "config": {"name": "multiply_1", "trainable": true, "dtype": "float32"}, "name": "multiply_1", "inbound_nodes": [[["multiply", 0, 0, {}], ["conv3d", 0, 0, {}]]]}, {"class_name": "BatchNormalization", "config": {"name": "batch_normalization_14", "trainable": true, "dtype": "float32", "axis": [3], "momentum": 0.99, "epsilon": 0.001, "center": true, "scale": true, "beta_initializer": {"class_name": "Zeros", "config": {}}, "gamma_initializer": {"class_name": "Ones", "config": {}}, "moving_mean_initializer": {"class_name": "Zeros", "config": {}}, "moving_variance_initializer": {"class_name": "Ones", "config": {}}, "beta_regularizer": null, "gamma_regularizer": null, "beta_constraint": null, "gamma_constraint": null}, "name": "batch_normalization_14", "inbound_nodes": [[["input0_block31_resconv1", 0, 0, {}]]]}, {"class_name": "Add", "config": {"name": "add_6", "trainable": true, "dtype": "float32"}, "name": "add_6", "inbound_nodes": [[["multiply_1", 0, 0, {}], ["batch_normalization_14", 0, 0, {}]]]}, {"class_name": "Activation", "config": {"name": "activation_14", "trainable": true, "dtype": "float32", "activation": "relu"}, "name": "activation_14", "inbound_nodes": [[["add_6", 0, 0, {}]]]}, {"class_name": "Conv3D", "config": {"name": "input0_block32_conv2", "trainable": true, "dtype": "float32", "filters": 64, "kernel_size": [3, 3, 3], "strides": [1, 1, 1], "padding": "same", "data_format": "channels_last", "dilation_rate": [1, 1, 1], "groups": 1, "activation": "linear", "use_bias": true, "kernel_initializer": {"class_name": "GlorotUniform", "config": {"seed": null}}, "bias_initializer": {"class_name": "Zeros", "config": {}}, "kernel_regularizer": {"class_name": "L2", "config": {"l2": 9.999999747378752e-06}}, "bias_regularizer": {"class_name": "L2", "config": {"l2": 9.999999747378752e-06}}, "activity_regularizer": null, "kernel_constraint": null, "bias_constraint": null}, "name": "input0_block32_conv2", "inbound_nodes": [[["activation_14", 0, 0, {}]]]}, {"class_name": "BatchNormalization", "config": {"name": "batch_normalization_16", "trainable": true, "dtype": "float32", "axis": [3], "momentum": 0.99, "epsilon": 0.001, "center": true, "scale": true, "beta_initializer": {"class_name": "Zeros", "config": {}}, "gamma_initializer": {"class_name": "Ones", "config": {}}, "moving_mean_initializer": {"class_name": "Zeros", "config": {}}, "moving_variance_initializer": {"class_name": "Ones", "config": {}}, "beta_regularizer": null, "gamma_regularizer": null, "beta_constraint": null, "gamma_constraint": null}, "name": "batch_normalization_16", "inbound_nodes": [[["input0_block32_conv2", 0, 0, {}]]]}, {"class_name": "AveragePooling3D", "config": {"name": "input0_block32avgpool1", "trainable": true, "dtype": "float32", "pool_size": [3, 3, 3], "padding": "same", "strides": [2, 2, 2], "data_format": "channels_last"}, "name": "input0_block32avgpool1", "inbound_nodes": [[["batch_normalization_16", 0, 0, {}]]]}, {"class_name": "GlobalAveragePooling3D", "config": {"name": "global_average_pooling3d_1", "trainable": true, "dtype": "float32", "data_format": "channels_last", "keepdims": false}, "name": "global_average_pooling3d_1", "inbound_nodes": [[["input0_block32avgpool1", 0, 0, {}]]]}, {"class_name": "GlobalMaxPooling3D", "config": {"name": "global_max_pooling3d_1", "trainable": true, "dtype": "float32", "data_format": "channels_last", "keepdims": false}, "name": "global_max_pooling3d_1", "inbound_nodes": [[["input0_block32avgpool1", 0, 0, {}]]]}, {"class_name": "Dense", "config": {"name": "dense_2", "trainable": true, "dtype": "float32", "units": 8, "activation": "relu", "use_bias": true, "kernel_initializer": {"class_name": "GlorotUniform", "config": {"seed": null}}, "bias_initializer": {"class_name": "Zeros", "config": {}}, "kernel_regularizer": {"class_name": "L2", "config": {"l2": 9.999999747378752e-06}}, "bias_regularizer": null, "activity_regularizer": null, "kernel_constraint": null, "bias_constraint": null}, "name": "dense_2", "inbound_nodes": [[["global_average_pooling3d_1", 0, 0, {}]], [["global_max_pooling3d_1", 0, 0, {}]]]}, {"class_name": "Dense", "config": {"name": "dense_3", "trainable": true, "dtype": "float32", "units": 64, "activation": "linear", "use_bias": true, "kernel_initializer": {"class_name": "GlorotUniform", "config": {"seed": null}}, "bias_initializer": {"class_name": "Zeros", "config": {}}, "kernel_regularizer": {"class_name": "L2", "config": {"l2": 9.999999747378752e-06}}, "bias_regularizer": null, "activity_regularizer": null, "kernel_constraint": null, "bias_constraint": null}, "name": "dense_3", "inbound_nodes": [[["dense_2", 0, 0, {}]], [["dense_2", 1, 0, {}]]]}, {"class_name": "Add", "config": {"name": "add_7", "trainable": true, "dtype": "float32"}, "name": "add_7", "inbound_nodes": [[["dense_3", 0, 0, {}], ["dense_3", 1, 0, {}]]]}, {"class_name": "Activation", "config": {"name": "activation_16", "trainable": true, "dtype": "float32", "activation": "sigmoid"}, "name": "activation_16", "inbound_nodes": [[["add_7", 0, 0, {}]]]}, {"class_name": "Multiply", "config": {"name": "multiply_2", "trainable": true, "dtype": "float32"}, "name": "multiply_2", "inbound_nodes": [[["input0_block32avgpool1", 0, 0, {}], ["activation_16", 0, 0, {}]]]}, {"class_name": "Lambda", "config": {"name": "lambda_2", "trainable": true, "dtype": "float32", "function": ["4wEAAAAAAAAAAAAAAAEAAAAFAAAAUwAAAHMQAAAAdABqAXwAZAFkAmQDjQNTAKkETun/////VCkC\n2gRheGlz2ghrZWVwZGltc6kC2gJ0ZtoLcmVkdWNlX21lYW6pAdoBeKkAcgoAAAD6NUM6L1VzZXJz\nL1VTRVIvRGVza3RvcC9Nb3RvclNjb3Jlc19ETC91dGlscy9OZXR3b3JrLnB52gg8bGFtYmRhPoYA\nAADzAAAAAA==\n", null, null], "function_type": "lambda", "module": "Network", "output_shape": null, "output_shape_type": "raw", "output_shape_module": null, "arguments": {}}, "name": "lambda_2", "inbound_nodes": [[["multiply_2", 0, 0, {}]]]}, {"class_name": "Lambda", "config": {"name": "lambda_3", "trainable": true, "dtype": "float32", "function": ["4wEAAAAAAAAAAAAAAAEAAAAFAAAAUwAAAHMQAAAAdABqAXwAZAFkAmQDjQNTAKkETun/////VCkC\n2gRheGlz2ghrZWVwZGltcykC2gJ0ZtoKcmVkdWNlX21heKkB2gF4qQByCQAAAPo1QzovVXNlcnMv\nVVNFUi9EZXNrdG9wL01vdG9yU2NvcmVzX0RML3V0aWxzL05ldHdvcmsucHnaCDxsYW1iZGE+hwAA\nAPMAAAAA\n", null, null], "function_type": "lambda", "module": "Network", "output_shape": null, "output_shape_type": "raw", "output_shape_module": null, "arguments": {}}, "name": "lambda_3", "inbound_nodes": [[["multiply_2", 0, 0, {}]]]}, {"class_name": "Concatenate", "config": {"name": "concatenate_1", "trainable": true, "dtype": "float32", "axis": -1}, "name": "concatenate_1", "inbound_nodes": [[["lambda_2", 0, 0, {}], ["lambda_3", 0, 0, {}]]]}, {"class_name": "Conv3D", "config": {"name": "conv3d_1", "trainable": true, "dtype": "float32", "filters": 1, "kernel_size": [7, 7, 7], "strides": [1, 1, 1], "padding": "same", "data_format": "channels_last", "dilation_rate": [1, 1, 1], "groups": 1, "activation": "sigmoid", "use_bias": true, "kernel_initializer": {"class_name": "GlorotUniform", "config": {"seed": null}}, "bias_initializer": {"class_name": "Zeros", "config": {}}, "kernel_regularizer": null, "bias_regularizer": null, "activity_regularizer": null, "kernel_constraint": null, "bias_constraint": null}, "name": "conv3d_1", "inbound_nodes": [[["concatenate_1", 0, 0, {}]]]}, {"class_name": "Conv3D", "config": {"name": "input0_block32_resconv1", "trainable": true, "dtype": "float32", "filters": 64, "kernel_size": [1, 1, 1], "strides": [2, 2, 2], "padding": "same", "data_format": "channels_last", "dilation_rate": [1, 1, 1], "groups": 1, "activation": "linear", "use_bias": true, "kernel_initializer": {"class_name": "GlorotUniform", "config": {"seed": null}}, "bias_initializer": {"class_name": "Zeros", "config": {}}, "kernel_regularizer": {"class_name": "L2", "config": {"l2": 9.999999747378752e-06}}, "bias_regularizer": {"class_name": "L2", "config": {"l2": 9.999999747378752e-06}}, "activity_regularizer": null, "kernel_constraint": null, "bias_constraint": null}, "name": "input0_block32_resconv1", "inbound_nodes": [[["activation_14", 0, 0, {}]]]}, {"class_name": "Multiply", "config": {"name": "multiply_3", "trainable": true, "dtype": "float32"}, "name": "multiply_3", "inbound_nodes": [[["multiply_2", 0, 0, {}], ["conv3d_1", 0, 0, {}]]]}, {"class_name": "BatchNormalization", "config": {"name": "batch_normalization_17", "trainable": true, "dtype": "float32", "axis": [3], "momentum": 0.99, "epsilon": 0.001, "center": true, "scale": true, "beta_initializer": {"class_name": "Zeros", "config": {}}, "gamma_initializer": {"class_name": "Ones", "config": {}}, "moving_mean_initializer": {"class_name": "Zeros", "config": {}}, "moving_variance_initializer": {"class_name": "Ones", "config": {}}, "beta_regularizer": null, "gamma_regularizer": null, "beta_constraint": null, "gamma_constraint": null}, "name": "batch_normalization_17", "inbound_nodes": [[["input0_block32_resconv1", 0, 0, {}]]]}, {"class_name": "Add", "config": {"name": "add_8", "trainable": true, "dtype": "float32"}, "name": "add_8", "inbound_nodes": [[["multiply_3", 0, 0, {}], ["batch_normalization_17", 0, 0, {}]]]}, {"class_name": "Activation", "config": {"name": "activation_17", "trainable": true, "dtype": "float32", "activation": "relu"}, "name": "activation_17", "inbound_nodes": [[["add_8", 0, 0, {}]]]}, {"class_name": "Conv3D", "config": {"name": "input0_block33_conv2", "trainable": true, "dtype": "float32", "filters": 128, "kernel_size": [3, 3, 3], "strides": [1, 1, 1], "padding": "same", "data_format": "channels_last", "dilation_rate": [1, 1, 1], "groups": 1, "activation": "linear", "use_bias": true, "kernel_initializer": {"class_name": "GlorotUniform", "config": {"seed": null}}, "bias_initializer": {"class_name": "Zeros", "config": {}}, "kernel_regularizer": {"class_name": "L2", "config": {"l2": 9.999999747378752e-06}}, "bias_regularizer": {"class_name": "L2", "config": {"l2": 9.999999747378752e-06}}, "activity_regularizer": null, "kernel_constraint": null, "bias_constraint": null}, "name": "input0_block33_conv2", "inbound_nodes": [[["activation_17", 0, 0, {}]]]}, {"class_name": "BatchNormalization", "config": {"name": "batch_normalization_19", "trainable": true, "dtype": "float32", "axis": [3], "momentum": 0.99, "epsilon": 0.001, "center": true, "scale": true, "beta_initializer": {"class_name": "Zeros", "config": {}}, "gamma_initializer": {"class_name": "Ones", "config": {}}, "moving_mean_initializer": {"class_name": "Zeros", "config": {}}, "moving_variance_initializer": {"class_name": "Ones", "config": {}}, "beta_regularizer": null, "gamma_regularizer": null, "beta_constraint": null, "gamma_constraint": null}, "name": "batch_normalization_19", "inbound_nodes": [[["input0_block33_conv2", 0, 0, {}]]]}, {"class_name": "AveragePooling3D", "config": {"name": "input0_block33avgpool1", "trainable": true, "dtype": "float32", "pool_size": [3, 3, 3], "padding": "same", "strides": [2, 2, 2], "data_format": "channels_last"}, "name": "input0_block33avgpool1", "inbound_nodes": [[["batch_normalization_19", 0, 0, {}]]]}, {"class_name": "GlobalAveragePooling3D", "config": {"name": "global_average_pooling3d_2", "trainable": true, "dtype": "float32", "data_format": "channels_last", "keepdims": false}, "name": "global_average_pooling3d_2", "inbound_nodes": [[["input0_block33avgpool1", 0, 0, {}]]]}, {"class_name": "GlobalMaxPooling3D", "config": {"name": "global_max_pooling3d_2", "trainable": true, "dtype": "float32", "data_format": "channels_last", "keepdims": false}, "name": "global_max_pooling3d_2", "inbound_nodes": [[["input0_block33avgpool1", 0, 0, {}]]]}, {"class_name": "Dense", "config": {"name": "dense_4", "trainable": true, "dtype": "float32", "units": 16, "activation": "relu", "use_bias": true, "kernel_initializer": {"class_name": "GlorotUniform", "config": {"seed": null}}, "bias_initializer": {"class_name": "Zeros", "config": {}}, "kernel_regularizer": {"class_name": "L2", "config": {"l2": 9.999999747378752e-06}}, "bias_regularizer": null, "activity_regularizer": null, "kernel_constraint": null, "bias_constraint": null}, "name": "dense_4", "inbound_nodes": [[["global_average_pooling3d_2", 0, 0, {}]], [["global_max_pooling3d_2", 0, 0, {}]]]}, {"class_name": "Dense", "config": {"name": "dense_5", "trainable": true, "dtype": "float32", "units": 128, "activation": "linear", "use_bias": true, "kernel_initializer": {"class_name": "GlorotUniform", "config": {"seed": null}}, "bias_initializer": {"class_name": "Zeros", "config": {}}, "kernel_regularizer": {"class_name": "L2", "config": {"l2": 9.999999747378752e-06}}, "bias_regularizer": null, "activity_regularizer": null, "kernel_constraint": null, "bias_constraint": null}, "name": "dense_5", "inbound_nodes": [[["dense_4", 0, 0, {}]], [["dense_4", 1, 0, {}]]]}, {"class_name": "Add", "config": {"name": "add_9", "trainable": true, "dtype": "float32"}, "name": "add_9", "inbound_nodes": [[["dense_5", 0, 0, {}], ["dense_5", 1, 0, {}]]]}, {"class_name": "Activation", "config": {"name": "activation_19", "trainable": true, "dtype": "float32", "activation": "sigmoid"}, "name": "activation_19", "inbound_nodes": [[["add_9", 0, 0, {}]]]}, {"class_name": "Multiply", "config": {"name": "multiply_4", "trainable": true, "dtype": "float32"}, "name": "multiply_4", "inbound_nodes": [[["input0_block33avgpool1", 0, 0, {}], ["activation_19", 0, 0, {}]]]}, {"class_name": "Lambda", "config": {"name": "lambda_4", "trainable": true, "dtype": "float32", "function": ["4wEAAAAAAAAAAAAAAAEAAAAFAAAAUwAAAHMQAAAAdABqAXwAZAFkAmQDjQNTAKkETun/////VCkC\n2gRheGlz2ghrZWVwZGltc6kC2gJ0ZtoLcmVkdWNlX21lYW6pAdoBeKkAcgoAAAD6NUM6L1VzZXJz\nL1VTRVIvRGVza3RvcC9Nb3RvclNjb3Jlc19ETC91dGlscy9OZXR3b3JrLnB52gg8bGFtYmRhPoYA\nAADzAAAAAA==\n", null, null], "function_type": "lambda", "module": "Network", "output_shape": null, "output_shape_type": "raw", "output_shape_module": null, "arguments": {}}, "name": "lambda_4", "inbound_nodes": [[["multiply_4", 0, 0, {}]]]}, {"class_name": "Lambda", "config": {"name": "lambda_5", "trainable": true, "dtype": "float32", "function": ["4wEAAAAAAAAAAAAAAAEAAAAFAAAAUwAAAHMQAAAAdABqAXwAZAFkAmQDjQNTAKkETun/////VCkC\n2gRheGlz2ghrZWVwZGltcykC2gJ0ZtoKcmVkdWNlX21heKkB2gF4qQByCQAAAPo1QzovVXNlcnMv\nVVNFUi9EZXNrdG9wL01vdG9yU2NvcmVzX0RML3V0aWxzL05ldHdvcmsucHnaCDxsYW1iZGE+hwAA\nAPMAAAAA\n", null, null], "function_type": "lambda", "module": "Network", "output_shape": null, "output_shape_type": "raw", "output_shape_module": null, "arguments": {}}, "name": "lambda_5", "inbound_nodes": [[["multiply_4", 0, 0, {}]]]}, {"class_name": "Concatenate", "config": {"name": "concatenate_2", "trainable": true, "dtype": "float32", "axis": -1}, "name": "concatenate_2", "inbound_nodes": [[["lambda_4", 0, 0, {}], ["lambda_5", 0, 0, {}]]]}, {"class_name": "Conv3D", "config": {"name": "conv3d_2", "trainable": true, "dtype": "float32", "filters": 1, "kernel_size": [7, 7, 7], "strides": [1, 1, 1], "padding": "same", "data_format": "channels_last", "dilation_rate": [1, 1, 1], "groups": 1, "activation": "sigmoid", "use_bias": true, "kernel_initializer": {"class_name": "GlorotUniform", "config": {"seed": null}}, "bias_initializer": {"class_name": "Zeros", "config": {}}, "kernel_regularizer": null, "bias_regularizer": null, "activity_regularizer": null, "kernel_constraint": null, "bias_constraint": null}, "name": "conv3d_2", "inbound_nodes": [[["concatenate_2", 0, 0, {}]]]}, {"class_name": "Conv3D", "config": {"name": "input0_block33_resconv1", "trainable": true, "dtype": "float32", "filters": 128, "kernel_size": [1, 1, 1], "strides": [2, 2, 2], "padding": "same", "data_format": "channels_last", "dilation_rate": [1, 1, 1], "groups": 1, "activation": "linear", "use_bias": true, "kernel_initializer": {"class_name": "GlorotUniform", "config": {"seed": null}}, "bias_initializer": {"class_name": "Zeros", "config": {}}, "kernel_regularizer": {"class_name": "L2", "config": {"l2": 9.999999747378752e-06}}, "bias_regularizer": {"class_name": "L2", "config": {"l2": 9.999999747378752e-06}}, "activity_regularizer": null, "kernel_constraint": null, "bias_constraint": null}, "name": "input0_block33_resconv1", "inbound_nodes": [[["activation_17", 0, 0, {}]]]}, {"class_name": "Multiply", "config": {"name": "multiply_5", "trainable": true, "dtype": "float32"}, "name": "multiply_5", "inbound_nodes": [[["multiply_4", 0, 0, {}], ["conv3d_2", 0, 0, {}]]]}, {"class_name": "BatchNormalization", "config": {"name": "batch_normalization_20", "trainable": true, "dtype": "float32", "axis": [3], "momentum": 0.99, "epsilon": 0.001, "center": true, "scale": true, "beta_initializer": {"class_name": "Zeros", "config": {}}, "gamma_initializer": {"class_name": "Ones", "config": {}}, "moving_mean_initializer": {"class_name": "Zeros", "config": {}}, "moving_variance_initializer": {"class_name": "Ones", "config": {}}, "beta_regularizer": null, "gamma_regularizer": null, "beta_constraint": null, "gamma_constraint": null}, "name": "batch_normalization_20", "inbound_nodes": [[["input0_block33_resconv1", 0, 0, {}]]]}, {"class_name": "Add", "config": {"name": "add_10", "trainable": true, "dtype": "float32"}, "name": "add_10", "inbound_nodes": [[["multiply_5", 0, 0, {}], ["batch_normalization_20", 0, 0, {}]]]}, {"class_name": "Activation", "config": {"name": "activation_20", "trainable": true, "dtype": "float32", "activation": "relu"}, "name": "activation_20", "inbound_nodes": [[["add_10", 0, 0, {}]]]}, {"class_name": "Conv3D", "config": {"name": "input0_block34_conv2", "trainable": true, "dtype": "float32", "filters": 256, "kernel_size": [3, 3, 3], "strides": [1, 1, 1], "padding": "same", "data_format": "channels_last", "dilation_rate": [1, 1, 1], "groups": 1, "activation": "linear", "use_bias": true, "kernel_initializer": {"class_name": "GlorotUniform", "config": {"seed": null}}, "bias_initializer": {"class_name": "Zeros", "config": {}}, "kernel_regularizer": {"class_name": "L2", "config": {"l2": 9.999999747378752e-06}}, "bias_regularizer": {"class_name": "L2", "config": {"l2": 9.999999747378752e-06}}, "activity_regularizer": null, "kernel_constraint": null, "bias_constraint": null}, "name": "input0_block34_conv2", "inbound_nodes": [[["activation_20", 0, 0, {}]]]}, {"class_name": "BatchNormalization", "config": {"name": "batch_normalization_22", "trainable": true, "dtype": "float32", "axis": [3], "momentum": 0.99, "epsilon": 0.001, "center": true, "scale": true, "beta_initializer": {"class_name": "Zeros", "config": {}}, "gamma_initializer": {"class_name": "Ones", "config": {}}, "moving_mean_initializer": {"class_name": "Zeros", "config": {}}, "moving_variance_initializer": {"class_name": "Ones", "config": {}}, "beta_regularizer": null, "gamma_regularizer": null, "beta_constraint": null, "gamma_constraint": null}, "name": "batch_normalization_22", "inbound_nodes": [[["input0_block34_conv2", 0, 0, {}]]]}, {"class_name": "AveragePooling3D", "config": {"name": "input0_block34avgpool1", "trainable": true, "dtype": "float32", "pool_size": [3, 3, 3], "padding": "same", "strides": [2, 2, 2], "data_format": "channels_last"}, "name": "input0_block34avgpool1", "inbound_nodes": [[["batch_normalization_22", 0, 0, {}]]]}, {"class_name": "GlobalAveragePooling3D", "config": {"name": "global_average_pooling3d_3", "trainable": true, "dtype": "float32", "data_format": "channels_last", "keepdims": false}, "name": "global_average_pooling3d_3", "inbound_nodes": [[["input0_block34avgpool1", 0, 0, {}]]]}, {"class_name": "GlobalMaxPooling3D", "config": {"name": "global_max_pooling3d_3", "trainable": true, "dtype": "float32", "data_format": "channels_last", "keepdims": false}, "name": "global_max_pooling3d_3", "inbound_nodes": [[["input0_block34avgpool1", 0, 0, {}]]]}, {"class_name": "Dense", "config": {"name": "dense_6", "trainable": true, "dtype": "float32", "units": 32, "activation": "relu", "use_bias": true, "kernel_initializer": {"class_name": "GlorotUniform", "config": {"seed": null}}, "bias_initializer": {"class_name": "Zeros", "config": {}}, "kernel_regularizer": {"class_name": "L2", "config": {"l2": 9.999999747378752e-06}}, "bias_regularizer": null, "activity_regularizer": null, "kernel_constraint": null, "bias_constraint": null}, "name": "dense_6", "inbound_nodes": [[["global_average_pooling3d_3", 0, 0, {}]], [["global_max_pooling3d_3", 0, 0, {}]]]}, {"class_name": "Dense", "config": {"name": "dense_7", "trainable": true, "dtype": "float32", "units": 256, "activation": "linear", "use_bias": true, "kernel_initializer": {"class_name": "GlorotUniform", "config": {"seed": null}}, "bias_initializer": {"class_name": "Zeros", "config": {}}, "kernel_regularizer": {"class_name": "L2", "config": {"l2": 9.999999747378752e-06}}, "bias_regularizer": null, "activity_regularizer": null, "kernel_constraint": null, "bias_constraint": null}, "name": "dense_7", "inbound_nodes": [[["dense_6", 0, 0, {}]], [["dense_6", 1, 0, {}]]]}, {"class_name": "Add", "config": {"name": "add_11", "trainable": true, "dtype": "float32"}, "name": "add_11", "inbound_nodes": [[["dense_7", 0, 0, {}], ["dense_7", 1, 0, {}]]]}, {"class_name": "Activation", "config": {"name": "activation_22", "trainable": true, "dtype": "float32", "activation": "sigmoid"}, "name": "activation_22", "inbound_nodes": [[["add_11", 0, 0, {}]]]}, {"class_name": "Multiply", "config": {"name": "multiply_6", "trainable": true, "dtype": "float32"}, "name": "multiply_6", "inbound_nodes": [[["input0_block34avgpool1", 0, 0, {}], ["activation_22", 0, 0, {}]]]}, {"class_name": "Lambda", "config": {"name": "lambda_6", "trainable": true, "dtype": "float32", "function": ["4wEAAAAAAAAAAAAAAAEAAAAFAAAAUwAAAHMQAAAAdABqAXwAZAFkAmQDjQNTAKkETun/////VCkC\n2gRheGlz2ghrZWVwZGltc6kC2gJ0ZtoLcmVkdWNlX21lYW6pAdoBeKkAcgoAAAD6NUM6L1VzZXJz\nL1VTRVIvRGVza3RvcC9Nb3RvclNjb3Jlc19ETC91dGlscy9OZXR3b3JrLnB52gg8bGFtYmRhPoYA\nAADzAAAAAA==\n", null, null], "function_type": "lambda", "module": "Network", "output_shape": null, "output_shape_type": "raw", "output_shape_module": null, "arguments": {}}, "name": "lambda_6", "inbound_nodes": [[["multiply_6", 0, 0, {}]]]}, {"class_name": "Lambda", "config": {"name": "lambda_7", "trainable": true, "dtype": "float32", "function": ["4wEAAAAAAAAAAAAAAAEAAAAFAAAAUwAAAHMQAAAAdABqAXwAZAFkAmQDjQNTAKkETun/////VCkC\n2gRheGlz2ghrZWVwZGltcykC2gJ0ZtoKcmVkdWNlX21heKkB2gF4qQByCQAAAPo1QzovVXNlcnMv\nVVNFUi9EZXNrdG9wL01vdG9yU2NvcmVzX0RML3V0aWxzL05ldHdvcmsucHnaCDxsYW1iZGE+hwAA\nAPMAAAAA\n", null, null], "function_type": "lambda", "module": "Network", "output_shape": null, "output_shape_type": "raw", "output_shape_module": null, "arguments": {}}, "name": "lambda_7", "inbound_nodes": [[["multiply_6", 0, 0, {}]]]}, {"class_name": "Concatenate", "config": {"name": "concatenate_3", "trainable": true, "dtype": "float32", "axis": -1}, "name": "concatenate_3", "inbound_nodes": [[["lambda_6", 0, 0, {}], ["lambda_7", 0, 0, {}]]]}, {"class_name": "Conv3D", "config": {"name": "conv3d_3", "trainable": true, "dtype": "float32", "filters": 1, "kernel_size": [7, 7, 7], "strides": [1, 1, 1], "padding": "same", "data_format": "channels_last", "dilation_rate": [1, 1, 1], "groups": 1, "activation": "sigmoid", "use_bias": true, "kernel_initializer": {"class_name": "GlorotUniform", "config": {"seed": null}}, "bias_initializer": {"class_name": "Zeros", "config": {}}, "kernel_regularizer": null, "bias_regularizer": null, "activity_regularizer": null, "kernel_constraint": null, "bias_constraint": null}, "name": "conv3d_3", "inbound_nodes": [[["concatenate_3", 0, 0, {}]]]}, {"class_name": "Conv3D", "config": {"name": "input0_block34_resconv1", "trainable": true, "dtype": "float32", "filters": 256, "kernel_size": [1, 1, 1], "strides": [2, 2, 2], "padding": "same", "data_format": "channels_last", "dilation_rate": [1, 1, 1], "groups": 1, "activation": "linear", "use_bias": true, "kernel_initializer": {"class_name": "GlorotUniform", "config": {"seed": null}}, "bias_initializer": {"class_name": "Zeros", "config": {}}, "kernel_regularizer": {"class_name": "L2", "config": {"l2": 9.999999747378752e-06}}, "bias_regularizer": {"class_name": "L2", "config": {"l2": 9.999999747378752e-06}}, "activity_regularizer": null, "kernel_constraint": null, "bias_constraint": null}, "name": "input0_block34_resconv1", "inbound_nodes": [[["activation_20", 0, 0, {}]]]}, {"class_name": "Multiply", "config": {"name": "multiply_7", "trainable": true, "dtype": "float32"}, "name": "multiply_7", "inbound_nodes": [[["multiply_6", 0, 0, {}], ["conv3d_3", 0, 0, {}]]]}, {"class_name": "BatchNormalization", "config": {"name": "batch_normalization_23", "trainable": true, "dtype": "float32", "axis": [3], "momentum": 0.99, "epsilon": 0.001, "center": true, "scale": true, "beta_initializer": {"class_name": "Zeros", "config": {}}, "gamma_initializer": {"class_name": "Ones", "config": {}}, "moving_mean_initializer": {"class_name": "Zeros", "config": {}}, "moving_variance_initializer": {"class_name": "Ones", "config": {}}, "beta_regularizer": null, "gamma_regularizer": null, "beta_constraint": null, "gamma_constraint": null}, "name": "batch_normalization_23", "inbound_nodes": [[["input0_block34_resconv1", 0, 0, {}]]]}, {"class_name": "Add", "config": {"name": "add_12", "trainable": true, "dtype": "float32"}, "name": "add_12", "inbound_nodes": [[["multiply_7", 0, 0, {}], ["batch_normalization_23", 0, 0, {}]]]}, {"class_name": "Activation", "config": {"name": "activation_23", "trainable": true, "dtype": "float32", "activation": "relu"}, "name": "activation_23", "inbound_nodes": [[["add_12", 0, 0, {}]]]}, {"class_name": "Conv3D", "config": {"name": "input0_block41_conv2", "trainable": true, "dtype": "float32", "filters": 512, "kernel_size": [3, 3, 3], "strides": [1, 1, 1], "padding": "same", "data_format": "channels_last", "dilation_rate": [1, 1, 1], "groups": 1, "activation": "linear", "use_bias": true, "kernel_initializer": {"class_name": "GlorotUniform", "config": {"seed": null}}, "bias_initializer": {"class_name": "Zeros", "config": {}}, "kernel_regularizer": {"class_name": "L2", "config": {"l2": 9.999999747378752e-06}}, "bias_regularizer": {"class_name": "L2", "config": {"l2": 9.999999747378752e-06}}, "activity_regularizer": null, "kernel_constraint": null, "bias_constraint": null}, "name": "input0_block41_conv2", "inbound_nodes": [[["activation_23", 0, 0, {}]]]}, {"class_name": "BatchNormalization", "config": {"name": "batch_normalization_25", "trainable": true, "dtype": "float32", "axis": [3], "momentum": 0.99, "epsilon": 0.001, "center": true, "scale": true, "beta_initializer": {"class_name": "Zeros", "config": {}}, "gamma_initializer": {"class_name": "Ones", "config": {}}, "moving_mean_initializer": {"class_name": "Zeros", "config": {}}, "moving_variance_initializer": {"class_name": "Ones", "config": {}}, "beta_regularizer": null, "gamma_regularizer": null, "beta_constraint": null, "gamma_constraint": null}, "name": "batch_normalization_25", "inbound_nodes": [[["input0_block41_conv2", 0, 0, {}]]]}, {"class_name": "GlobalAveragePooling3D", "config": {"name": "global_average_pooling3d_4", "trainable": true, "dtype": "float32", "data_format": "channels_last", "keepdims": false}, "name": "global_average_pooling3d_4", "inbound_nodes": [[["batch_normalization_25", 0, 0, {}]]]}, {"class_name": "GlobalMaxPooling3D", "config": {"name": "global_max_pooling3d_4", "trainable": true, "dtype": "float32", "data_format": "channels_last", "keepdims": false}, "name": "global_max_pooling3d_4", "inbound_nodes": [[["batch_normalization_25", 0, 0, {}]]]}, {"class_name": "Dense", "config": {"name": "dense_8", "trainable": true, "dtype": "float32", "units": 64, "activation": "relu", "use_bias": true, "kernel_initializer": {"class_name": "GlorotUniform", "config": {"seed": null}}, "bias_initializer": {"class_name": "Zeros", "config": {}}, "kernel_regularizer": {"class_name": "L2", "config": {"l2": 9.999999747378752e-06}}, "bias_regularizer": null, "activity_regularizer": null, "kernel_constraint": null, "bias_constraint": null}, "name": "dense_8", "inbound_nodes": [[["global_average_pooling3d_4", 0, 0, {}]], [["global_max_pooling3d_4", 0, 0, {}]]]}, {"class_name": "Dense", "config": {"name": "dense_9", "trainable": true, "dtype": "float32", "units": 512, "activation": "linear", "use_bias": true, "kernel_initializer": {"class_name": "GlorotUniform", "config": {"seed": null}}, "bias_initializer": {"class_name": "Zeros", "config": {}}, "kernel_regularizer": {"class_name": "L2", "config": {"l2": 9.999999747378752e-06}}, "bias_regularizer": null, "activity_regularizer": null, "kernel_constraint": null, "bias_constraint": null}, "name": "dense_9", "inbound_nodes": [[["dense_8", 0, 0, {}]], [["dense_8", 1, 0, {}]]]}, {"class_name": "Add", "config": {"name": "add_13", "trainable": true, "dtype": "float32"}, "name": "add_13", "inbound_nodes": [[["dense_9", 0, 0, {}], ["dense_9", 1, 0, {}]]]}, {"class_name": "Activation", "config": {"name": "activation_25", "trainable": true, "dtype": "float32", "activation": "sigmoid"}, "name": "activation_25", "inbound_nodes": [[["add_13", 0, 0, {}]]]}, {"class_name": "Multiply", "config": {"name": "multiply_8", "trainable": true, "dtype": "float32"}, "name": "multiply_8", "inbound_nodes": [[["batch_normalization_25", 0, 0, {}], ["activation_25", 0, 0, {}]]]}, {"class_name": "Lambda", "config": {"name": "lambda_8", "trainable": true, "dtype": "float32", "function": ["4wEAAAAAAAAAAAAAAAEAAAAFAAAAUwAAAHMQAAAAdABqAXwAZAFkAmQDjQNTAKkETun/////VCkC\n2gRheGlz2ghrZWVwZGltc6kC2gJ0ZtoLcmVkdWNlX21lYW6pAdoBeKkAcgoAAAD6NUM6L1VzZXJz\nL1VTRVIvRGVza3RvcC9Nb3RvclNjb3Jlc19ETC91dGlscy9OZXR3b3JrLnB52gg8bGFtYmRhPoYA\nAADzAAAAAA==\n", null, null], "function_type": "lambda", "module": "Network", "output_shape": null, "output_shape_type": "raw", "output_shape_module": null, "arguments": {}}, "name": "lambda_8", "inbound_nodes": [[["multiply_8", 0, 0, {}]]]}, {"class_name": "Lambda", "config": {"name": "lambda_9", "trainable": true, "dtype": "float32", "function": ["4wEAAAAAAAAAAAAAAAEAAAAFAAAAUwAAAHMQAAAAdABqAXwAZAFkAmQDjQNTAKkETun/////VCkC\n2gRheGlz2ghrZWVwZGltcykC2gJ0ZtoKcmVkdWNlX21heKkB2gF4qQByCQAAAPo1QzovVXNlcnMv\nVVNFUi9EZXNrdG9wL01vdG9yU2NvcmVzX0RML3V0aWxzL05ldHdvcmsucHnaCDxsYW1iZGE+hwAA\nAPMAAAAA\n", null, null], "function_type": "lambda", "module": "Network", "output_shape": null, "output_shape_type": "raw", "output_shape_module": null, "arguments": {}}, "name": "lambda_9", "inbound_nodes": [[["multiply_8", 0, 0, {}]]]}, {"class_name": "Concatenate", "config": {"name": "concatenate_4", "trainable": true, "dtype": "float32", "axis": -1}, "name": "concatenate_4", "inbound_nodes": [[["lambda_8", 0, 0, {}], ["lambda_9", 0, 0, {}]]]}, {"class_name": "Conv3D", "config": {"name": "conv3d_4", "trainable": true, "dtype": "float32", "filters": 1, "kernel_size": [7, 7, 7], "strides": [1, 1, 1], "padding": "same", "data_format": "channels_last", "dilation_rate": [1, 1, 1], "groups": 1, "activation": "sigmoid", "use_bias": true, "kernel_initializer": {"class_name": "GlorotUniform", "config": {"seed": null}}, "bias_initializer": {"class_name": "Zeros", "config": {}}, "kernel_regularizer": null, "bias_regularizer": null, "activity_regularizer": null, "kernel_constraint": null, "bias_constraint": null}, "name": "conv3d_4", "inbound_nodes": [[["concatenate_4", 0, 0, {}]]]}, {"class_name": "Multiply", "config": {"name": "multiply_9", "trainable": true, "dtype": "float32"}, "name": "multiply_9", "inbound_nodes": [[["multiply_8", 0, 0, {}], ["conv3d_4", 0, 0, {}]]]}, {"class_name": "InputLayer", "config": {"batch_input_shape": [null, 3], "dtype": "float32", "sparse": false, "ragged": false, "name": "input_2"}, "name": "input_2", "inbound_nodes": []}, {"class_name": "GlobalAveragePooling3D", "config": {"name": "input0_block41_globalavpool", "trainable": true, "dtype": "float32", "data_format": "channels_last", "keepdims": false}, "name": "input0_block41_globalavpool", "inbound_nodes": [[["multiply_9", 0, 0, {}]]]}, {"class_name": "Dense", "config": {"name": "dense_dem", "trainable": true, "dtype": "float32", "units": 1, "activation": "relu", "use_bias": true, "kernel_initializer": {"class_name": "GlorotUniform", "config": {"seed": null}}, "bias_initializer": {"class_name": "Zeros", "config": {}}, "kernel_regularizer": {"class_name": "L2", "config": {"l2": 9.999999747378752e-06}}, "bias_regularizer": {"class_name": "L2", "config": {"l2": 9.999999747378752e-06}}, "activity_regularizer": null, "kernel_constraint": null, "bias_constraint": null}, "name": "dense_dem", "inbound_nodes": [[["input_2", 0, 0, {}]]]}, {"class_name": "Concatenate", "config": {"name": "concatenate_5", "trainable": true, "dtype": "float32", "axis": -1}, "name": "concatenate_5", "inbound_nodes": [[["input0_block41_globalavpool", 0, 0, {}], ["dense_dem", 0, 0, {}]]]}, {"class_name": "BatchNormalization", "config": {"name": "feature_bn", "trainable": true, "dtype": "float32", "axis": [1], "momentum": 0.99, "epsilon": 0.001, "center": true, "scale": true, "beta_initializer": {"class_name": "Zeros", "config": {}}, "gamma_initializer": {"class_name": "Ones", "config": {}}, "moving_mean_initializer": {"class_name": "Zeros", "config": {}}, "moving_variance_initializer": {"class_name": "Ones", "config": {}}, "beta_regularizer": null, "gamma_regularizer": null, "beta_constraint": null, "gamma_constraint": null}, "name": "feature_bn", "inbound_nodes": [[["concatenate_5", 0, 0, {}]]]}, {"class_name": "Dense", "config": {"name": "dense1", "trainable": true, "dtype": "float32", "units": 256, "activation": "relu", "use_bias": true, "kernel_initializer": {"class_name": "GlorotUniform", "config": {"seed": null}}, "bias_initializer": {"class_name": "Zeros", "config": {}}, "kernel_regularizer": {"class_name": "L2", "config": {"l2": 9.999999747378752e-06}}, "bias_regularizer": {"class_name": "L2", "config": {"l2": 9.999999747378752e-06}}, "activity_regularizer": null, "kernel_constraint": null, "bias_constraint": null}, "name": "dense1", "inbound_nodes": [[["feature_bn", 0, 0, {}]]]}, {"class_name": "Dropout", "config": {"name": "dropout", "trainable": true, "dtype": "float32", "rate": 0.3, "noise_shape": null, "seed": null}, "name": "dropout", "inbound_nodes": [[["dense1", 0, 0, {}]]]}, {"class_name": "BatchNormalization", "config": {"name": "batch_normalization_26", "trainable": true, "dtype": "float32", "axis": [1], "momentum": 0.99, "epsilon": 0.001, "center": true, "scale": true, "beta_initializer": {"class_name": "Zeros", "config": {}}, "gamma_initializer": {"class_name": "Ones", "config": {}}, "moving_mean_initializer": {"class_name": "Zeros", "config": {}}, "moving_variance_initializer": {"class_name": "Ones", "config": {}}, "beta_regularizer": null, "gamma_regularizer": null, "beta_constraint": null, "gamma_constraint": null}, "name": "batch_normalization_26", "inbound_nodes": [[["dropout", 0, 0, {}]]]}, {"class_name": "Dense", "config": {"name": "dense2", "trainable": true, "dtype": "float32", "units": 256, "activation": "relu", "use_bias": true, "kernel_initializer": {"class_name": "GlorotUniform", "config": {"seed": null}}, "bias_initializer": {"class_name": "Zeros", "config": {}}, "kernel_regularizer": {"class_name": "L2", "config": {"l2": 9.999999747378752e-06}}, "bias_regularizer": {"class_name": "L2", "config": {"l2": 9.999999747378752e-06}}, "activity_regularizer": null, "kernel_constraint": null, "bias_constraint": null}, "name": "dense2", "inbound_nodes": [[["batch_normalization_26", 0, 0, {}]]]}, {"class_name": "Dropout", "config": {"name": "dropout_1", "trainable": true, "dtype": "float32", "rate": 0.3, "noise_shape": null, "seed": null}, "name": "dropout_1", "inbound_nodes": [[["dense2", 0, 0, {}]]]}, {"class_name": "BatchNormalization", "config": {"name": "batch_normalization_27", "trainable": true, "dtype": "float32", "axis": [1], "momentum": 0.99, "epsilon": 0.001, "center": true, "scale": true, "beta_initializer": {"class_name": "Zeros", "config": {}}, "gamma_initializer": {"class_name": "Ones", "config": {}}, "moving_mean_initializer": {"class_name": "Zeros", "config": {}}, "moving_variance_initializer": {"class_name": "Ones", "config": {}}, "beta_regularizer": null, "gamma_regularizer": null, "beta_constraint": null, "gamma_constraint": null}, "name": "batch_normalization_27", "inbound_nodes": [[["dropout_1", 0, 0, {}]]]}, {"class_name": "Dense", "config": {"name": "dense3", "trainable": true, "dtype": "float32", "units": 2, "activation": "softmax", "use_bias": true, "kernel_initializer": {"class_name": "GlorotUniform", "config": {"seed": null}}, "bias_initializer": {"class_name": "Zeros", "config": {}}, "kernel_regularizer": {"class_name": "L2", "config": {"l2": 9.999999747378752e-06}}, "bias_regularizer": {"class_name": "L2", "config": {"l2": 9.999999747378752e-06}}, "activity_regularizer": null, "kernel_constraint": null, "bias_constraint": null}, "name": "dense3", "inbound_nodes": [[["batch_normalization_27", 0, 0, {}]]]}], "input_layers": [["input_1", 0, 0], ["input_2", 0, 0]], "output_layers": [["dense3", 0, 0]]}, "keras_version": "2.10.0", "backend": "tensorflow"}